models/lstm/lstm_model_00364.pth (torch, 2405 bytes, 5 tensors)

lstm.weight_ih_l0 f4 [8, 1]
0	0x3fce768d	1.6129929
1	0x3f858603	1.0431522
2	0xbf79f358	-0.9763694
3	0xbf9d3977	-1.2283162
4	0xc00392eb	-2.0558422
5	0x3fe92565	1.8214537
6	0xbfce4cc4	-1.6117177
7	0x409335df	4.600326

lstm.weight_hh_l0 f4 [8, 2]
0	0xbf1c10a4	-0.6096289
1	0xc082edb5	-4.091517
2	0x41090aac	8.565105
3	0xc06de791	-3.7172587
4	0x4027fee4	2.6249323
5	0xc01838b3	-2.3784606
6	0xc171b7d6	-15.107382
7	0x410e3982	8.88904
8	0xc02ba491	-2.6819193
9	0x4048c605	3.1370862
10	0xbf4f67a5	-0.81017524
11	0xbfb934bb	-1.4469217
12	0xc0688602	-3.6331792
13	0xbfb7d4bd	-1.4361798
14	0x4054a3f9	3.322508
15	0x40a1b423	5.0532393

lstm.bias_ih_l0 f4 [8]
0	0x3f48ac6f	0.7838811
1	0x3f8132e7	1.0093659
2	0x3fc85399	1.5650512
3	0xc01576aa	-2.3353677
4	0xbed38ebd	-0.41319838
5	0xbf319550	-0.6936846
6	0x3dedb642	0.116070285
7	0xbe3875b2	-0.18013647

lstm.bias_hh_l0 f4 [8]
0	0x3f561852	0.8363086
1	0x3fec3d0b	1.8456129
2	0x3f62fbb1	0.886653
3	0xbfe8a437	-1.8175114
4	0xbf1d4761	-0.6143704
5	0xbe846006	-0.2585451
6	0x3f421330	0.7581053
7	0x3f1b0b18	0.605638

fc.weight f4 [1, 2]
0	0xbf9687dd	-1.1760212
1	0x3f68b543	0.90901583
